…
chitecture (e.g. initializing a BertForSequenceClassification model from a BertForPreTraining model).\n- This IS NOT expected if you are initializing BertForTokenClassification from the checkpoint of a model that you expect to be exactly identical (initializing a BertForSequenceClassification model from a BertForSequenceClassification model).\n"
        },
        {
          "output_type": "execute_result",
          "execution_count": 16,
          "data": {
            "text/plain": "BertForTokenClassification(\n  (bert): BertModel(\n    (embeddings): BertEmbeddings(\n      (word_embeddings): Embedding(28996, 1024, padding_idx=0)\n      (position_embeddings): Embedding(512, 1024)\n      (token_type_embeddings): Embedding(2, 1024)\n      (LayerNorm): LayerNorm((1024,), eps=1e-12, elementwise_affine=True)\n      (dropout): Dropout(p=0.1, inplace=False)\n    )\n    (encoder): BertEncoder(\n      (layer): ModuleList(\n        (0): BertLayer(\n          (attention): BertAttention(\n            (self): BertSelfAttention(\n              (query): Linear(in_features=1024, out_features=1024, bias=True)\n              (key): Linear(in_features=1024, out_features=1024, bias=True)\n              (value): Linear(in_features=1024, out_features=1024, bias=True)\n              (dropout): Dropout(p=0.1, inplace=False)\n            )\n            (output): BertSelfOutput(\n              (dense): Linear(in_features=1024, out_features=1024, bias=True)\n              (LayerNorm): LayerNorm((1024,), eps=1e-12, elementwise_affine=True)\n              (dropout): Dropout(p=0.1, inplace=False)\n            )\n          )\n          (intermediate): BertIntermediate(\n            (dense): Linear(in_features=1024, out_features=4096, bias=True)\n            (intermediate_act_fn): GELUActivation()\n          )\n          (output): BertOutput(\n            (dense): Linear(in_features=4096, out_features=1024, bias=True)\n            (LayerNorm): LayerNorm((1024,), eps=1e-12, elementwise_affine=True)\n            (dropout): Dropout(p=0.1, inplace=False)\n          )\n        )\n        (1): BertLayer(\n          (attention): BertAttention(\n            (self): BertSelfAttention(\n              (query): Linear(in_features=1024, out_features=1024, bias=True)\n              (key): Linear(in_features=1024, out_features=1024, bias=True)\n              (value): Linear(in_features=1024, out_features=1024, bias=True)\n              (dropout): Dropout(p=0.1, inplace=False)\n            )\n            (output): BertSelfOutput(\n              (dense): Linear(in_features=1024, out_features=1024, bias=True)\n              (LayerNorm): LayerNorm((1024,), eps=1e-12, elementwise_affine=True)\n              (dropout): Dropout(p=0.1, inplace=False)\n            )\n          )\n          (intermediate): BertIntermediate(\n            (dense): Linear(in_features=1024, out_features=4096, bias=True)\n            (intermediate_act_fn): GELUActivation()\n          )\n          (output): BertOutput(\n            (dense): Linear(in_features=4096, out_features=1024, bias=True)\n            (LayerNorm): LayerNorm((1024,), eps=1e-12, elementwise_affine=True)\n            (dropout): Dropout(p=0.1, inplace=False)\n          )\n        )\n        (2): BertLayer(\n          (attention): BertAttention(\n            (self): BertSelfAttention(\n              (query): Linear(in_features=1024, out_features=1024, bias=True)\n              (key): Linear(in_features=1024, out_features=1024, bias=True)\n              (value): Linear(in_features=1024, out_features=1024, bias=True)\n              (dropout): Dropout(p=0.1, inplace=False)\n            )\n            (output): BertSelfOutput(\n              (dense): Linear(in_features=1024, out_features=1024, bias=True)\n              (LayerNorm): LayerNorm((1024,), eps=1e-12, elementwise_affine=True)\n              (dropout): Dropout(p=0.1, inplace=False)\n            )\n          )\n          (intermediate): BertIntermediate(\n            (dense): Linear(in_features=1024, out_features=4096, bias=True)\n            (intermediate_act_fn): GELUActivation()\n          )\n          (output): BertOutput(\n            (dense): Linear(in_features=4096, out_features=1024, bias=True)\n            (LayerNorm): LayerNorm((1024,), eps=1e-12, elementwise_affine=True)\n            (dropout): Dropout(p=0.1, inplace=False)\n          )\n        )\n        (3): BertLayer(\n          (attention): BertAttention(\n            (self): BertSelfAttention(\n              (query): Linear(in_features=1024, out_features=1024, bias=True)\n              (key): Linear(in_features=1024, out_features=1024, bias=True)\n              (value): Linear(in_features=1024, out_features=1024, bias=True)\n              (dropout): Dropout(p=0.1, inplace=False)\n            )\n            (output): BertSelfOutput(\n              (dense): Linear(in_features=1024, out_features=1024, bias=True)\n              (LayerNorm): LayerNorm((1024,), eps=1e-12, elementwise_affine=True)\n              (dropout): Dropout(p=0.1, inplace=False)\n            )\n          )\n          (intermediate): BertIntermediate(\n            (dense): Linear(in_features=1024, out_features=4096, bias=True)\n            (intermediate_act_fn): GELUActivation()\n          )\n          (output): BertOutput(\n            (dense): Linear(in_features=4096, out_features=1024, bias=True)\n            (LayerNorm): LayerNorm((1024,), eps=1e-12, elementwise_affine=True)\n            (dropout): Dropout(p=0.1, inplace=False)\n          )\n        )\n        (4): BertLayer(\n          (attention): BertAttention(\n            (self): BertSelfAttention(\n              (query): Linear(in_features=1024, out_features=1024, bias=True)\n              (key): Linear(in_features=1024, out_features=1024, bias=True)\n              (value): Linear(in_features=1024, out_features=1024, bias=True)\n              (dropout): Dropout(p=0.1, inplace=False)\n            )\n            (output): BertSelfOutput(\n              (dense): Linear(in_features=1024, out_features=1024, bias=True)\n              (LayerNorm): LayerNorm((1024,), eps=1e-12, elementwise_affine=True)\n              (dropout): Dropout(p=0.1, inplace=False)\n            )\n          )\n          (intermediate): BertIntermediate(\n            (dense): Linear(in_features=1024, out_features=4096, bias=True)\n            (intermediate_act_fn): GELUActivation()\n          )\n          (output): BertOutput(\n            (dense): Linear(in_features=4096, out_features=1024, bias=True)\n            (LayerNorm): LayerNorm((1024,), eps=1e-12, elementwise_affine=True)\n            (dropout): Dropout(p=0.1, inplace=False)\n          )\n        )\n        (5): BertLayer(\n          (attention): BertAttention(\n            (self): BertSelfAttention(\n              (query): Linear(in_features=1024, out_features=1024, bias=True)\n              (key): Linear(in_features=1024, out_features=1024, bias=True)\n              (value): Linear(in_features=1024, out_features=1024, bias=True)\n              (dropout): Dropout(p=0.1, inplace=False)\n            )\n            (output): BertSelfOutput(\n              (dense): Linear(in_features=1024, out_features=1024, bias=True)\n              (LayerNorm): LayerNorm((1024,), eps=1e-12, elementwise_affine=True)\n              (dropout): Dropout(p=0.1, inplace=False)\n            )\n          )\n          (intermediate): BertIntermediate(\n            (dense): Linear(in_features=1024, out_features=4096, bias=True)\n            (intermediate_act_fn): GELUActivation()\n          )\n          (output): BertOutput(\n            (dense): Linear(in_features=4096, out_features=1024, bias=True)\n            (LayerNorm): LayerNorm((1024,), eps=1e-12, elementwise_affine=True)\n            (dropout): Dropout(p=0.1, inplace=False)\n          )\n        )\n        (6): BertLayer(\n          (attention): BertAttention(\n            (self): BertSelfAttention(\n              (query): Linear(in_features=1024, out_features=1024, bias=True)\n              (key): Linear(in_features=1024, out_features=1024, bias=True)\n              (value): Linear(in_features=1024, out_features=1024, bias=True)\n              (dropout): Dropout(p=0.1, inplace=False)\n            )\n            (output): BertSelfOutput(\n              (dense): Linear(in_features=1024, out_features=1024, bias=True)\n              (LayerNorm): LayerNorm((1024,), eps=1e-12, elementwise_affine=True)\n              (dropout): Dropout(p=0.1, inplace=False)\n            )\n          )\n          (intermediate): BertIntermediate(\n            (dense): Linear(in_features=1024, out_features=4096, bias=True)\n            (intermediate_act_fn): GELUActivation()\n          )\n          (output): BertOutput(\n            (dense): Linear(in_features=4096, out_features=1024, bias=True)\n            (LayerNorm): LayerNorm((1024,), eps=1e-12, elementwise_affine=True)\n            (dropout): Dropout(p=0.1, inplace=False)\n          )\n        )\n        (7): BertLayer(\n          (attention): BertAttention(\n            (self): BertSelfAttention(\n              (query): Linear(in_features=1024, out_features=1024, bias=True)\n              (key): Linear(in_features=1024, out_features=1024, bias=True)\n              (value): Linear(in_features=1024, out_features=1024, bias=True)\n              (dropout): Dropout(p=0.1, inplace=False)\n            )\n            (output): BertSelfOutput(\n              (dense): Linear(in_features=1024, out_features=1024, bias=True)\n              (LayerNorm): LayerNorm((1024,), eps=1e-12, elementwise_affine=True)\n              (dropout): Dropout(p=0.1, inplace=False)\n            )\n          )\n          (intermediate): BertIntermediate(\n            (dense): Linear(in_features=1024, out_features=4096, bias=True)\n            (intermediate_act_fn): GELUActivation()\n          )\n          (output): BertOutput(\n            (dense): Linear(in_features=4096, out_features=1024, bias=True)\n            (LayerNorm): LayerNorm((1024,), eps=1e-12, elementwise_affine=True)\n            (dropout): Dropout(p=0.1, inplace=False)\n          )\n        )\n        (8): BertLayer(\n          (attention): BertAttention(\n            (self): BertSelfAttention(\n              (query): Linear(in_features=1024, out_features=1024, bias=True)\n              (key): Linear(in_features=1024, out_features=1024, bias=True)\n              (value): Linear(in_features=1024, out_features=1024, bias=True)\n              (dropout): Dropout(p=0.1, inplace=False)\n            )\n            (output): BertSelfOutput(\n              (dense): Linear(in_features=1024, out_features=1024, bias=True)\n              (LayerNorm): LayerNorm((1024,), eps=1e-12, elementwise_affine=True)\n              (dropout): Dropout(p=0.1, inplace=False)\n            )\n          )\n          (intermediate): BertIntermediate(\n            (dense): Linear(in_features=1024, out_features=4096, bias=True)\n            (intermediate_act_fn): GELUActivation()\n          )\n          (output): BertOutput(\n            (dense): Linear(in_features=4096, out_features=1024, bias=True)\n            (LayerNorm): LayerNorm((1024,), eps=1e-12, elementwise_affine=True)\n            (dropout): Dropout(p=0.1, inplace=False)\n          )\n        )\n        (9): BertLayer(\n          (attention): BertAttention(\n            (self): BertSelfAttention(\n              (query): Linear(in_features=1024, out_features=1024, bias=True)\n              (key): Linear(in_features=1024, out_features=1024, bias=True)\n              (value): Linear(in_features=1024, out_features=1024, bias=True)\n              (dropout): Dropout(p=0.1, inplace=False)\n            )\n            (output): BertSelfOutput(\n              (dense): Linear(in_features=1024, out_features=1024, bias=True)\n              (LayerNorm): LayerNorm((1024,), eps=1e-12, elementwise_affine=True)\n              (dropout): Dropout(p=0.1, inplace=False)\n            )\n          )\n          (intermediate): BertIntermediate(\n            (dense): Linear(in_features=1024, out_features=4096, bias=True)\n            (intermediate_act_fn): GELUActivation()\n          )\n          (output): BertOutput(\n            (dense): Linear(in_features=4096, out_features=1024, bias=True)\n            (LayerNorm): LayerNorm((1024,), eps=1e-12, elementwise_affine=True)\n            (dropout): Dropout(p=0.1, inplace=False)\n          )\n        )\n        (10): BertLayer(\n          (attention): BertAttention(\n            (self): BertSelfAttention(\n              (query): Linear(in_features=1024, out_features=1024, bias=True)\n              (key): Linear(in_features=1024, out_features=1024, bias=True)\n              (value): Linear(in_features=1024, out_features=1024, bias=True)\n              (dropout): Dropout(p=0.1, inplace=False)\n            )\n            (output): BertSelfOutput(\n              (dense): Linear(in_features=1024, out_features=1024, bias=True)\n              (LayerNorm): LayerNorm((1024,), eps=1e-12, elementwise_affine=True)\n              (dropout): Dropout(p=0.1, inplace=False)\n            )\n          )\n          (intermediate): BertIntermediate(\n            (dense): Linear(in_features=1024, out_features=4096, bias=True)\n            (intermediate_act_fn): GELUActivation()\n          )\n          (output): BertOutput(\n            (dense): Linear(in_features=4096, out_features=1024, bias=True)\n            (LayerNorm): LayerNorm((1024,), eps=1e-12, elementwise_affine=True)\n            (dropout): Dropout(p=0.1, inplace=False)\n          )\n        )\n        (11): BertLayer(\n          (attention): BertAttention(\n            (self): BertSelfAttention(\n              (query): Linear(in_features=1024, out_features=1024, bias=True)\n              (key): Linear(in_features=1024, out_features=1024, bias=True)\n              (value): Linear(in_features=1024, out_features=1024, bias=True)\n              (dropout): Dropout(p=0.1, inplace=False)\n            )\n            (output): BertSelfOutput(\n              (dense): Linear(in_features=1024, out_features=1024, bias=True)\n              (LayerNorm): LayerNorm((1024,), eps=1e-12, elementwise_affine=True)\n              (dropout): Dropout(p=0.1, inplace=False)\n            )\n          )\n          (intermediate): BertIntermediate(\n            (dense): Linear(in_features=1024, out_features=4096, bias=True)\n            (intermediate_act_fn): GELUActivation()\n          )\n          (output): BertOutput(\n            (dense): Linear(in_features=4096, out_features=1024, bias=True)\n            (LayerNorm): LayerNorm((1024,), eps=1e-12, elementwise_affine=True)\n            (dropout): Dropout(p=0.1, inplace=False)\n          )\n        )\n        (12): BertLayer(\n          (attention): BertAttention(\n            (self): BertSelfAttention(\n              (query): Linear(in_features=1024, out_features=1024, bias=True)\n              (key): Linear(in_features=1024, out_features=1024, bias=True)\n              (value): Linear(in_features=1024, out_features=1024, bias=True)\n              (dropout): Dropout(p=0.1, inplace=False)\n            )\n            (output): BertSelfOutput(\n              (dense): Linear(in_features=1024, out_features=1024, bias=True)\n              (LayerNorm): LayerNorm((1024,), eps=1e-12, elementwise_affine=True)\n              (dropout): Dropout(p=0.1, inplace=False)\n            )\n          )\n          (intermediate): BertIntermediate(\n            (dense): Linear(in_features=1024, out_features=4096, bias=True)\n            (intermediate_act_fn): GELUActivation()\n          )\n          (output): BertOutput(\n            (dense): Linear(in_features=4096, out_features=1024, bias=True)\n            (LayerNorm): LayerNorm((1024,), eps=1e-12, elementwise_affine=True)\n            (dropout): Dropout(p=0.1, inplace=False)\n          )\n        )\n        (13): BertLayer(\n          (attention): BertAttention(\n            (self): BertSelfAttention(\n              (query): Linear(in_features=1024, out_features=1024, bias=True)\n              (key): Linear(in_features=1024, out_features=1024, bias=True)\n              (value): Linear(in_features=1024, out_features=1024, bias=True)\n              (dropout): Dropout(p=0.1, inplace=False)\n            )\n            (output): BertSelfOutput(\n              (dense): Linear(in_features=1024, out_features=1024, bias=True)\n              (LayerNorm): LayerNorm((1024,), eps=1e-12, elementwise_affine=True)\n              (dropout): Dropout(p=0.1, inplace=False)\n            )\n          )\n          (intermediate): BertIntermediate(\n            (dense): Linear(in_features=1024, out_features=4096, bias=True)\n            (intermediate_act_fn): GELUActivation()\n          )\n          (output): BertOutput(\n            (dense): Linear(in_features=4096, out_features=1024, bias=True)\n            (LayerNorm): LayerNorm((1024,), eps=1e-12, elementwise_affine=True)\n            (dropout): Dropout(p=0.1, inplace=False)\n          )\n        )\n        (14): BertLayer(\n          (attention): BertAttention(\n            (self): BertSelfAttention(\n              (query): Linear(in_features=1024, out_features=1024, bias=True)\n              (key): Linear(in_features=1024, out_features=1024, bias=True)\n              (value): Linear(in_features=1024, out_features=1024, bias=True)\n              (dropout): Dropout(p=0.1, inplace=False)\n            )\n            (output): BertSelfOutput(\n              (dense): Linear(in_features=1024, out_features=1024, bias=True)\n              (LayerNorm): LayerNorm((1024,), eps=1e-12, elementwise_affine=True)\n              (dropout): Dropout(p=0.1, inplace=False)\n            )\n          )\n          (intermediate): BertIntermediate(\n            (dense): Linear(in_features=1024, out_features=4096, bias=True)\n            (intermediate_act_fn): GELUActivation()\n          )\n          (output): BertOutput(\n            (dense): Linear(in_features=4096, out_features=1024, bias=True)\n            (LayerNorm): LayerNorm((1024,), eps=1e-12, elementwise_affine=True)\n            (dropout): Dropout(p=0.1, inplace=False)\n          )\n        )\n        (15): BertLayer(\n          (attention): BertAttention(\n            (self): BertSelfAttention(\n              (query): Linear(in_features=1024, out_features=1024, bias=True)\n              (key): Linear(in_features=1024, out_features=1024, bias=True)\n              (value): Linear(in_features=1024, out_features=1024, bias=True)\n              (dropout): Dropout(p=0.1, inplace=False)\n            )\n            (output): BertSelfOutput(\n              (dense): Linear(in_features=1024, out_features=1024, bias=True)\n              (LayerNorm): LayerNorm((1024,), eps=1e-12, elementwise_affine=True)\n              (dropout): Dropout(p=0.1, inplace=False)\n            )\n          )\n          (intermediate): BertIntermediate(\n            (dense): Linear(in_features=1024, out_features=4096, bias=True)\n            (intermediate_act_fn): GELUActivation()\n          )\n          (output): BertOutput(\n            (dense): Linear(in_features=4096, out_features=1024, bias=True)\n            (LayerNorm): LayerNorm((1024,), eps=1e-12, elementwise_affine=True)\n            (dropout): Dropout(p=0.1, inplace=False)\n          )\n        )\n        (16): BertLayer(\n          (attention): BertAttention(\n            (self): BertSelfAttention(\n              (query): Linear(in_features=1024, out_features=1024, bias=True)\n              (key): Linear(in_features=1024, out_features=1024, bias=True)\n              (value): Linear(in_features=1024, out_features=1024, bias=True)\n              (dropout): Dropout(p=0.1, inplace=False)\n            )\n            (output): BertSelfOutput(\n              (dense): Linear(in_features=1024, out_features=1024, bias=True)\n              (LayerNorm): LayerNorm((1024,), eps=1e-12, elementwise_affine=True)\n              (dropout): Dropout(p=0.1, inplace=False)\n            )\n          )\n          (intermediate): BertIntermediate(\n            (dense): Linear(in_features=1024, out_features=4096, bias=True)\n            (intermediate_act_fn): GELUActivation()\n          )\n          (output): BertOutput(\n            (dense): Linear(in_features=4096, out_features=1024, bias=True)\n            (LayerNorm): LayerNorm((1024,), eps=1e-12, elementwise_affine=True)\n            (dropout): Dropout(p=0.1, inplace=False)\n          )\n        )\n        (17): BertLayer(\n          (attention): BertAttention(\n            (self): BertSelfAttention(\n              (query): Linear(in_features=1024, out_features=1024, bias=True)\n              (key): Linear(in_features=1024, out_features=1024, bias=True)\n              (value): Linear(in_features=1024, out_features=1024, bias=True)\n              (dropout): Dropout(p=0.1, inplace=False)\n            )\n            (output): BertSelfOutput(\n              (dense): Linear(in_features=1024, out_features=1024, bias=True)\n              (LayerNorm): LayerNorm((1024,), eps=1e-12, elementwise_affine=True)\n              (dropout): Dropout(p=0.1, inplace=False)\n            )\n          )\n          (intermediate): BertIntermediate(\n            (dense): Linear(in_features=1024, out_features=4096, bias=True)\n            (intermediate_act_fn): GELUActivation()\n          )\n          (output): BertOutput(\n            (dense): Linear(in_features=4096, out_features=1024, bias=True)\n            (LayerNorm): LayerNorm((1024,), eps=1e-12, elementwise_affine=True)\n            (dropout): Dropout(p=0.1, inplace=False)\n          )\n        )\n        (18): BertLayer(\n          (attention): BertAttention(\n            (self): BertSelfAttention(\n              (query): Linear(in_features=1024, out_features=1024, bias=True)\n              (key): Linear(in_features=1024, out_features=1024, bias=True)\n              (value): Linear(in_features=1024, out_features=1024, bias=True)\n              (dropout): Dropout(p=0.1, inplace=False)\n            )\n            (output): BertSelfOutput(\n              (dense): Linear(in_features=1024, out_features=1024, bias=True)\n              (LayerNorm): LayerNorm((1024,), eps=1e-12, elementwise_affine=True)\n              (dropout): Dropout(p=0.1, inplace=False)\n            )\n          )\n          (intermediate): BertIntermediate(\n            (dense): Linear(in_features=1024, out_features=4096, bias=True)\n            (intermediate_act_fn): GELUActivation()\n          )\n          (output): BertOutput(\n            (dense): Linear(in_features=4096, out_features=1024, bias=True)\n            (LayerNorm): LayerNorm((1024,), eps=1e-12, elementwise_affine=True)\n            (dropout): Dropout(p=0.1, inplace=False)\n          )\n        )\n        (19): BertLayer(\n          (attention): BertAttention(\n            (self): BertSelfAttention(\n              (query): Linear(in_features=1024, out_features=1024, bias=True)\n              (key): Linear(in_features=1024, out_features=1024, bias=True)\n              (value): Linear(in_features=1024, out_features=1024, bias=True)\n              (dropout): Dropout(p=0.1, inplace=False)\n            )\n            (output): BertSelfOutput(\n              (dense): Linear(in_features=1024, out_features=1024, bias=True)\n              (LayerNorm): LayerNorm((1024,), eps=1e-12, elementwise_affine=True)\n              (dropout): Dropout(p=0.1, inplace=False)\n            )\n          )\n          (intermediate): BertIntermediate(\n            (dense): Linear(in_features=1024, out_features=4096, bias=True)\n            (intermediate_act_fn): GELUActivation()\n          )\n          (output): BertOutput(\n            (dense): Linear(in_features=4096, out_features=1024, bias=True)\n            (LayerNorm): LayerNorm((1024,), eps=1e-12, elementwise_affine=True)\n            (dropout): Dropout(p=0.1, inplace=False)\n          )\n        )\n        (20): BertLayer(\n          (attention): BertAttention(\n            (self): BertSelfAttention(\n              (query): Linear(in_features=1024, out_features=1024, bias=True)\n              (key): Linear(in_features=1024, out_features=1024, bias=True)\n              (value): Linear(in_features=1024, out_features=1024, bias=True)\n              (dropout): Dropout(p=0.1, inplace=False)\n            )\n            (output): BertSelfOutput(\n              (dense): Linear(in_features=1024, out_features=1024, bias=True)\n              (LayerNorm): LayerNorm((1024,), eps=1e-12, elementwise_affine=True)\n              (dropout): Dropout(p=0.1, inplace=False)\n            )\n          )\n          (intermediate): BertIntermediate(\n            (dense): Linear(in_features=1024, out_features=4096, bias=True)\n            (intermediate_act_fn): GELUActivation()\n          )\n          (output): BertOutput(\n            (dense): Linear(in_features=4096, out_features=1024, bias=True)\n            (LayerNorm): LayerNorm((1024,), eps=1e-12, elementwise_affine=True)\n            (dropout): Dropout(p=0.1, inplace=False)\n          )\n        )\n        (21): BertLayer(\n          (attention): BertAttention(\n            (self): BertSelfAttention(\n              (query): Linear(in_features=1024, out_features=1024, bias=True)\n              (key): Linear(in_features=1024, out_features=1024, bias=True)\n              (value): Linear(in_features=1024, out_features=1024, bias=True)\n              (dropout): Dropout(p=0.1, inplace=False)\n            )\n            (output): BertSelfOutput(\n              (dense): Linear(in_features=1024, out_features=1024, bias=True)\n              (LayerNorm): LayerNorm((1024,), eps=1e-12, elementwise_affine=True)\n              (dropout): Dropout(p=0.1, inplace=False)\n            )\n          )\n          (intermediate): BertIntermediate(\n            (dense): Linear(in_features=1024, out_features=4096, bias=True)\n            (intermediate_act_fn): GELUActivation()\n          )\n          (output): BertOutput(\n            (dense): Linear(in_features=4096, out_features=1024, bias=True)\n            (LayerNorm): LayerNorm((1024,), eps=1e-12, elementwise_affine=True)\n            (dropout): Dropout(p=0.1, inplace=False)\n          )\n        )\n        (22): BertLayer(\n          (attention): BertAttention(\n            (self): BertSelfAttention(\n              (query): Linear(in_features=1024, out_features=1024, bias=True)\n              (key): Linear(in_features=1024, out_features=1024, bias=True)\n              (value): Linear(in_features=1024, out_features=1024, bias=True)\n              (dropout): Dropout(p=0.1, inplace=False)\n            )\n            (output): BertSelfOutput(\n              (dense): Linear(in_features=1024, out_features=1024, bias=True)\n              (LayerNorm): LayerNorm((1024,), eps=1e-12, elementwise_affine=True)\n              (dropout): Dropout(p=0.1, inplace=False)\n            )\n          )\n          (intermediate): BertIntermediate(\n            (dense): Linear(in_features=1024, out_features=4096, bias=True)\n            (intermediate_act_fn): GELUActivation()\n          )\n          (output): BertOutput(\n            (dense): Linear(in_features=4096, out_features=1024, bias=True)\n            (LayerNorm): LayerNorm((1024,), eps=1e-12, elementwise_affine=True)\n            (dropout): Dropout(p=0.1, inplace=False)\n          )\n        )\n        (23): BertLayer(\n          (attention): BertAttention(\n            (self): BertSelfAttention(\n              (query): Linear(in_features=1024, out_features=1024, bias=True)\n              (key): Linear(in_features=1024, out_features=1024, bias=True)\n              (value): Linear(in_features=1024, out_features=1024, bias=True)\n              (dropout): Dropout(p=0.1, inplace=False)\n            )\n            (output): BertSelfOutput(\n              (dense): Linear(in_features=1024, out_features=1024, bias=True)\n              (LayerNorm): LayerNorm((1024,), eps=1e-12, elementwise_affine=True)\n              (dropout): Dropout(p=0.1, inplace=False)\n            )\n          )\n          (intermediate): BertIntermediate(\n            (dense): Linear(in_features=1024, out_features=4096, bias=True)\n            (intermediate_act_fn): GELUActivation()\n          )\n          (output): BertOutput(\n            (dense): Linear(in_features=4096, out_features=1024, bias=True)\n            (LayerNorm): LayerNorm((1024,), eps=1e-12, elementwise_affine=True)\n            (dropout): Dropout(p=0.1, inplace=False)\n          )\n        )\n      )\n    )\n  )\n  (dropout): Dropout(p=0.1, inplace=False)\n  (classifier): Linear(in_features=1024, out_features=9, bias=True)\n)"
          },
          "metadata": {}
        }
      ],
      "execution_count": 16,
      "metadata": {
        "colab": {
          "base_uri": "https://localhost:8080/"
        },
        "id": "Qo911dGCJgXP",
        "executionInfo": {
          "status": "ok",
          "timestamp": 1716313645505,
          "user_tz": -60,
          "elapsed": 2520,
…
